1684399945.3456352
Shape of X [N, C, H, W]: torch.Size([64, 1, 28, 28])
Shape of y: torch.Size([64]) torch.int64
Using cuda device
NeuralNetwork(
  (flatten): Flatten(start_dim=1, end_dim=-1)
  (linear_relu_stack): Sequential(
    (0): Linear(in_features=784, out_features=512, bias=True)
    (1): ReLU()
    (2): Linear(in_features=512, out_features=512, bias=True)
    (3): ReLU()
    (4): Linear(in_features=512, out_features=10, bias=True)
  )
)
Load model ./model/MNIST_model.pth
CNN(
  (CNN_stack): Sequential(
    (0): Conv2d(1, 32, kernel_size=(3, 3), stride=(1, 1), padding=(1, 1))
    (1): ReLU()
    (2): MaxPool2d(kernel_size=2, stride=2, padding=0, dilation=1, ceil_mode=False)
    (3): Conv2d(32, 64, kernel_size=(3, 3), stride=(1, 1), padding=(1, 1))
    (4): ReLU()
    (5): MaxPool2d(kernel_size=2, stride=2, padding=0, dilation=1, ceil_mode=False)
  )
  (flatten): Flatten(start_dim=1, end_dim=-1)
  (linear_stack): Sequential(
    (0): Linear(in_features=3136, out_features=1024, bias=True)
    (1): ReLU()
    (2): Linear(in_features=1024, out_features=512, bias=True)
    (3): Dropout(p=0.5, inplace=False)
    (4): ReLU()
    (5): Linear(in_features=512, out_features=10, bias=True)
  )
)
Epoch 1
-------------------------------
loss: 2.304226  [   64/60000]
loss: 2.289200  [ 6464/60000]
loss: 2.289797  [12864/60000]
loss: 2.249202  [19264/60000]
loss: 2.221031  [25664/60000]
loss: 2.052895  [32064/60000]
loss: 1.329703  [38464/60000]
loss: 0.996770  [44864/60000]
loss: 0.822473  [51264/60000]
loss: 0.687910  [57664/60000]
Test Error: 
…
loss: 0.123828  [57664/60000]
Test Error: 
 Accuracy: 98.8%, Avg loss: 0.036839 

Epoch 20
-------------------------------
loss: 0.014490  [   64/60000]
loss: 0.084478  [ 6464/60000]
loss: 0.035767  [12864/60000]
loss: 0.050884  [19264/60000]
loss: 0.024561  [25664/60000]
loss: 0.023798  [32064/60000]
loss: 0.070487  [38464/60000]
loss: 0.057672  [44864/60000]
loss: 0.087368  [51264/60000]
loss: 0.098168  [57664/60000]
Test Error: 
 Accuracy: 98.7%, Avg loss: 0.036354 

Done!
Time-consuming: 329.3340837955475 

Saved PyTorch CNN Model State to ./model/MNIST_CNN_model_3.pth
CNN(
  (CNN_stack): Sequential(
    (0): Conv2d(1, 32, kernel_size=(3, 3), stride=(1, 1), padding=(1, 1))
    (1): ReLU()
    (2): MaxPool2d(kernel_size=2, stride=2, padding=0, dilation=1, ceil_mode=False)
    (3): Conv2d(32, 64, kernel_size=(3, 3), stride=(1, 1), padding=(1, 1))
    (4): ReLU()
    (5): MaxPool2d(kernel_size=2, stride=2, padding=0, dilation=1, ceil_mode=False)
  )
  (flatten): Flatten(start_dim=1, end_dim=-1)
  (linear_stack): Sequential(
    (0): Linear(in_features=3136, out_features=1024, bias=True)
    (1): ReLU()
    (2): Linear(in_features=1024, out_features=512, bias=True)
    (3): Dropout(p=0.5, inplace=False)
    (4): ReLU()
    (5): Linear(in_features=512, out_features=10, bias=True)
  )
)
Predicted: "7", Actual: "7"
